src/GRU-D/save/grud_mean_grud_para.pt (torch, 8040 bytes, 17 tensors)

weight_dg_x f4 [33]
0	0xbe2aff0a	-0.16698852
1	0x3f833734	1.0251222
2	0xbe918162	-0.28419024
3	0x402daa3a	2.7135148
4	0xbd4a6a68	-0.049417883
5	0x3fcf4ffe	1.6196287
6	0x3d22bdd5	0.03973182
7	0xbe171cf6	-0.14757141
8	0xbe151b3d	-0.14561172
9	0xbe1b018b	-0.15137307
10	0x4013957b	2.3059986
11	0x401ad9da	2.4195466
12	0x40014541	2.019852
13	0x3c941912	0.01807836
14	0x3d00eb9a	0.031474687
15	0xbe1de6b0	-0.15420032
16	0xbcab854e	-0.020937588
17	0xbe112705	-0.14175041
18	0xbda56fd5	-0.08077971
19	0x3d5e18ae	0.054222755
20	0xbd159a85	-0.036524314
21	0xbd531345	-0.05153205
22	0x401da4e3	2.463189
23	0xbf27f0f8	-0.65602064
24	0xbedea8e8	-0.4348824
25	0xbdf71023	-0.12063625
26	0xbc5f0010	-0.013610855
27	0xbe5cb311	-0.21552683
28	0xbdaaadb4	-0.083339125
29	0xbd30f846	-0.043205522
30	0xbcef5a40	-0.02921784
31	0xbe2a65b0	-0.16640353
32	0x3e6705de	0.22560832

weight_dg_h f4 [33]
0	0xbdda0bad	-0.10646758
1	0xbca8a8bd	-0.020588273
2	0xbd242163	-0.040070903
3	0xbe781d48	-0.2422992
4	0xbe007ffc	-0.12548822
5	0x3d1ddf41	0.03854299
6	0xbcc9dd7a	-0.024641741
7	0xbe6cdf13	-0.23131971
8	0xbded741d	-0.115944125
9	0xbc22e126	-0.009941375
10	0xbdc7f849	-0.097641535
11	0xbe45783c	-0.19284147
12	0xbe1f9200	-0.15583038
13	0xbe3df28d	-0.18549557
14	0x3d5ac67e	0.053411953
15	0xbe50b162	-0.20380166
16	0xbd85deff	-0.06536674
17	0xbdf97d18	-0.12182063
18	0xbc9c03a3	-0.019044703
19	0xbe00d62e	-0.12581703
20	0x3f8cbf79	1.0995933
21	0xbe8d9281	-0.27650836
22	0x405d9b0d	3.4625885
23	0x3ffae413	1.9600853
24	0x3fa3e5c5	1.2804495
25	0xbe20158a	-0.15633217
26	0xc0173326	-2.3624969
27	0xbe8d8473	-0.27640113
28	0xbd6bcb7f	-0.057567116
29	0x3cbd3797	0.023097796
30	0x3ce77752	0.028255139
31	0x3ff831e3	1.9390224
32	0x3d8a7090	0.06759751

weight_xz f4 [33]
0	0xbdd59a3a	-0.10429807
1	0x3de81231	0.11331595
2	0x3f038de1	0.51388365
3	0x40186a20	2.3814774
4	0xbfa21e8b	-1.2665571
5	0x3fe469e7	1.7844819
6	0xbefe9fbb	-0.4973124
7	0x3f6c9f73	0.924308
8	0x3f7bc56c	0.98348117
9	0xbd7b61ba	-0.061372496
10	0xbda86f34	-0.08224335
11	0xbe3fe281	-0.18738748
12	0xc011527a	-2.270659
13	0xc00057f3	-2.005368
14	0x3f389b82	0.72112286
15	0xbf9cb929	-1.2244006
16	0xbed3e160	-0.41382885
17	0xbe2eb5d6	-0.17061552
18	0x3ea5fdb9	0.32420138
19	0xbf5222c8	-0.8208432
20	0x3f00d7c0	0.5032921
21	0xbf4a678e	-0.7906426
22	0xbee3e98e	-0.44514126
23	0x3ee95cbd	0.45578566
24	0x3e02ec74	0.12785512
25	0x3f4239b3	0.7586929
26	0x3f31c7eb	0.69445676
27	0xbfa33b07	-1.2752389
28	0xbf511a9b	-0.8168122
29	0x3f206fe4	0.6267073
30	0x3f8cc02e	1.0996149
31	0x3fb778a7	1.4333695
32	0xbdc2a0df	-0.0950334

weight_hz f4 [33]
0	0xbeb00921	-0.34381965
1	0xbfd94e6a	-1.6977055
2	0x3f38d6f0	0.7220297
3	0x3f051f63	0.5200102
4	0x3f8c34fb	1.0953668
5	0xbf3aedbc	-0.73019004
6	0xbe2461c6	-0.16052923
7	0xc0504575	-3.2542393
8	0x40534f4e	3.3017154
9	0xbea239f5	-0.31684843
10	0x3fe8ea9b	1.8196596
11	0xbf904b94	-1.1273065
12	0xbeb76c81	-0.3582497
13	0x3ee031bc	0.43787944
14	0xbf0113ca	-0.5042082
15	0xbf06ad6e	-0.5260838
16	0xbffecd5e	-1.9906423
17	0xbed1b418	-0.40957713
18	0xbfcfdcc4	-1.6239247
19	0xbf012972	-0.50453866
20	0x3f7a7f40	0.9785042
21	0xbf827eec	-1.0194983
22	0xbf3d1b23	-0.7386953
23	0xbfaf5b60	-1.369976
24	0x3db4a60e	0.08820735
25	0xbea11a51	-0.3146539
26	0x3acc42ae	0.0015583837
27	0x3eab5f32	0.33471066
28	0xbf719f9e	-0.9438418
29	0x406c4458	3.6916714
30	0x3fc5051d	1.5392185
31	0xc0259d91	-2.587742
32	0xbec40c46	-0.38290614

weight_mz f4 [33]
0	0xbe094a11	-0.1340716
1	0xbf2efd36	-0.6835512
2	0xbe770b9c	-0.24125522
3	0x402e6e71	2.7254908
4	0x3e91e7ed	0.28497258
5	0x3f37f0bd	0.7185171
6	0xbf2142a8	-0.62992334
7	0xbdda2f18	-0.10653514
8	0x3f07d7d2	0.5306369
9	0xbd62cfe6	-0.05537405
10	0xbf833eb5	-1.0253512
11	0x3de5cf30	0.112211585
12	0xc0110cb3	-2.2664
13	0xc00291b2	-2.0401425
14	0x40c6c9ce	6.2121344
15	0xbf9fe74e	-1.2492464
16	0x3d0f7385	0.035022277
17	0x3f4302a0	0.7617588
18	0xbea22c91	-0.31674626
19	0xbfa24151	-1.2676183
20	0x4012fdf8	2.296751
21	0xbf199538	-0.59993315
22	0xbeaddbfb	-0.33956894
23	0xc05da59a	-3.4632325
24	0xbefe14e3	-0.4962531
25	0x3ea6b4e7	0.32559893
26	0xbe3e3f2c	-0.18578786
27	0xbf9e7ad9	-1.238124
28	0xbf2c26db	-0.6724679
29	0xbf7a6300	-0.9780731
30	0xbc15f357	-0.009152255
31	0xc01b59aa	-2.4273477
32	0xbe386d99	-0.18010558

weight_xr f4 [33]
0	0xc05a87a6	-3.4145293
1	0xbee2b5fc	-0.44279468
2	0xc03f9fcb	-2.994128
3	0x3f57e1ed	0.8432911
4	0x40804fdf	4.00975
5	0x3fdf03b1	1.7423002
6	0xbfb0b400	-1.3804932
7	0x401a9856	2.4155478
8	0x3f18a817	0.59631485
9	0xc05353f1	-3.3019984
10	0xc08b51c9	-4.3537335
11	0xc000163c	-2.001357
12	0xc04f67bc	-3.2407064
13	0xbeedb55b	-0.46427426
14	0x3fa40c57	1.2816266
15	0x3b767d35	0.003761125
16	0xbfd52855	-1.6652933
17	0xbfb04fc5	-1.3774344
18	0xbf0b7eeb	-0.54490536
19	0xc057a3fe	-3.3693843
20	0xc00e23ef	-2.2209432
21	0xbf9d63aa	-1.229604
22	0xbf65658a	-0.8960806
23	0xbf47b1d9	-0.7800575
24	0x3ec0a35f	0.37624642
25	0x3e306022	0.17224172
26	0x3fed7922	1.8552592
27	0xc0087b0e	-2.1325107
28	0xc04621c1	-3.0958102
29	0xbfe7e88b	-1.8117841
30	0xbeb6af80	-0.3568077
31	0xbffa6b75	-1.9564043
32	0xbf459fad	-0.7719677

weight_hr f4 [33]
0	0x3f03c0de	0.51466167
1	0xbff12487	-1.8839272
2	0x3f572996	0.8404783
3	0xbf04b825	-0.5184348
4	0x4051242f	3.2678335
5	0xc0ec0c8a	-7.3765306
6	0xbc981a4c	-0.018567227
7	0xc0204153	-2.503987
8	0x3fcf428e	1.6192186
9	0xbf0f37ac	-0.55944324
10	0xbf319fc3	-0.693844
11	0xbfc53356	-1.5406291
12	0xbf8824e1	-1.0636255
13	0x3f8a668f	1.0812548
14	0xc095b152	-4.6778955
15	0xc0e29bcc	-7.081518
16	0xbd6887e3	-0.056770217
17	0xbd97c62e	-0.07410847
18	0xc0253c70	-2.5818138
19	0xbf52da83	-0.8236467
20	0xbf05a704	-0.5220797
21	0x3f0fe1db	0.56204003
22	0x3f296a76	0.6617807
23	0x3e247ee9	0.16064037
24	0x3fe3e99a	1.7805665
25	0xbfb94bc9	-1.4476253
26	0x3f4f8b83	0.81072253
27	0xbe8ddccc	-0.27707517
28	0xbf502f6f	-0.8132238
29	0x3f5c8c4e	0.8615159
30	0x3ff2fe7d	1.8983914
31	0x3f01be35	0.5068086
32	0x3ec1afdb	0.3782948

weight_mr f4 [33]
0	0xbf88d070	-1.068861
1	0xbfa62114	-1.2978845
2	0xc0076909	-2.1157858
3	0x3f142071	0.57862
4	0xbfedc2e9	-1.8575107
5	0x3f9d9f19	1.2314178
6	0xbd3999b0	-0.045312583
7	0x3f47a6f8	0.7798915
8	0x3f9c0b7a	1.2191002
9	0xc0792728	-3.893015
10	0xc0119d23	-2.2752159
11	0x3f86f9a1	1.0544931
12	0xbeda21d4	-0.42603934
13	0xbf902e31	-1.1264096
14	0xc0847093	-4.138742
15	0xc054c009	-3.324221
16	0xbf944a8f	-1.1585253
17	0x3f949007	1.1606454
18	0xbfddb622	-1.7321208
19	0x3de4396f	0.11143767
20	0x3f8430eb	1.0327429
21	0xbf9d4c7b	-1.2288965
22	0xbddaeab8	-0.106893
23	0x3f353059	0.707769
24	0xbe6e17d6	-0.2325128
25	0x3ed95eee	0.42455238
26	0x3f990ce8	1.1957064
27	0x3c9b24ec	0.018938504
28	0xc0103bc6	-2.2536483
29	0xbf6bdd0c	-0.92134166
30	0xc04cebd2	-3.2018933
31	0xbde68caa	-0.11257298
32	0x3f7801e6	0.96877897

weight_xh f4 [33]
0	0x3e85b593	0.26115093
1	0xbdc841eb	-0.09778198
2	0xbecb82f4	-0.39748347
3	0xbff40260	-1.9063225
4	0x3eee78ad	0.46576443
5	0x3f56e1f8	0.8393855
6	0xbe0c5ef0	-0.13708091
7	0x3faf9e02	1.3720095
8	0xbecabbfc	-0.39596546
9	0x3e3ebc29	0.18626465
10	0x3f6fe102	0.9370271
11	0xbdb1921d	-0.08670447
12	0xbec5bf77	-0.3862264
13	0xbe2e41ba	-0.1701726
14	0xbed05203	-0.4068757
15	0xbdb61241	-0.088902004
16	0x3c9ff954	0.019528069
17	0x3dabc494	0.08387104
18	0x3e81e999	0.25373533
19	0xbd97a07e	-0.07403658
20	0x3f2d1a17	0.67617935
21	0xbd7b6805	-0.061378498
22	0x3ea6e57e	0.32596964
23	0xbd9e1342	-0.07718517
24	0x3e1067da	0.14102116
25	0x3f2e02a5	0.67972785
26	0xbf43f380	-0.76543427
27	0xbdeee54c	-0.11664829
28	0xbe850fb9	-0.25988558
29	0x3f9f2bcd	1.2435242
30	0xbf4f7ecc	-0.8105285
31	0xbeb9e117	-0.36304542
32	0xbe3416c4	-0.1758681

weight_hh f4 [33]
0	0xc0846751	-4.137612
1	0xc07d13b8	-3.9543285
2	0xc07af2d1	-3.9210703
3	0xc03d1523	-2.954415
4	0xbeaa911e	-0.3331384
5	0x3f70da78	0.94083357
6	0xbff46017	-1.9091824
7	0x3f65b5c7	0.89730495
8	0xc01fec85	-2.498811
9	0xc034f21c	-2.8272772
10	0xc0800dd8	-4.00169
11	0xc08247d9	-4.0712705
12	0xc052cc35	-3.2937138
13	0xbfdfe446	-1.7491539
14	0xbcf0e9c0	-0.029408336
15	0xbfbc8f9f	-1.473133
16	0xc0367e51	-2.8514597
17	0xc0204997	-2.5044916
18	0xbf91a79d	-1.1379277
19	0xc06d3a1b	-3.7066715
20	0xc00171f6	-2.0225806
21	0xc00718ce	-2.110889
22	0xbff6db27	-1.928563
23	0xbfe06849	-1.7531825
24	0x3ee3a13f	0.44458959
25	0xbfbc7afa	-1.472503
26	0xbf994191	-1.1973134
27	0xc02d9e2f	-2.7127798
28	0xc05021c4	-3.252061
29	0xbff09b2e	-1.8797357
30	0x3f6e9092	0.93189347
31	0xbfc23fb5	-1.5175692
32	0xbfd01954	-1.625773

weight_mh f4 [33]
0	0xbf4d7173	-0.80251235
1	0xbd442e95	-0.047895987
2	0xbee0c193	-0.43897685
3	0xbfeee7a1	-1.8664438
4	0x4017d557	2.3723962
5	0xbf9cdb79	-1.2254478
6	0x3de3c5f2	0.111217394
7	0x3d53e27a	0.051729657
8	0xbf587354	-0.84550977
9	0x3f9d298a	1.2278302
10	0xbf53cc86	-0.82733953
11	0xbe4ed633	-0.20198898
12	0x3e7fe055	0.2498792
13	0x3ed20eb1	0.41026834
14	0x3f9b1024	1.2114301
15	0x3ec003f1	0.37503007
16	0x3ff51b50	1.914896
17	0x3e834a48	0.2564261
18	0xbd9ad5be	-0.07560299
19	0x3f68b592	0.90902054
20	0x405021bd	3.2520592
21	0xbf4c7d6d	-0.79878885
22	0x3f8dc959	1.1077071
23	0x3e5353cb	0.20637433
24	0x3d696720	0.056983113
25	0xbf03765d	-0.51352483
26	0xbeca0835	-0.39459386
27	0x3e654cd8	0.22392595
28	0x3f8f093e	1.1174695
29	0x3e99cfd2	0.30041367
30	0xbe047018	-0.12933385
31	0x3e8b3960	0.2719221
32	0x3e5e70e0	0.21722746

weight_hy f4 [1, 33]
0	0x3b8fcc9a	0.004388404
1	0x3d1f4490	0.038883746
2	0x3ecedd76	0.40403336
3	0x3f4f93a4	0.81084657
4	0x3f056b78	0.5211711
5	0xbea7877e	-0.3272056
6	0x345ff0c9	2.085609e-07
7	0x3e2d851d	0.1694531
8	0x3ed923db	0.42410168
9	0xbeb4e550	-0.35331202
10	0xbf845ed4	-1.0341439
11	0xbece3043	-0.40271196
12	0x3d5d2478	0.053989857
13	0xbe31eb21	-0.17374851
14	0xbed8b85c	-0.42328155
15	0x3a3a22c9	0.00071005203
16	0x3aba32e2	0.0014205838
17	0xbd96e7ba	-0.07368417
18	0x3c97f5e4	0.018549867
19	0x3cd0bf74	0.025481917
20	0x3ed2e98d	0.4119381
21	0x3d7b8e2b	0.06141488
22	0xbda53cc4	-0.08068231
23	0xbb88858d	-0.004166311
24	0xbe2ba118	-0.16760671
25	0x3e55cd5d	0.20879121
26	0x3eae3e19	0.34031752
27	0x38315b34	4.2285028e-05
28	0xbc42e1f2	-0.01189469
29	0x3edb3281	0.4281197
30	0x3d54c80e	0.0519486
31	0x3f86c779	1.0529624
32	0xbd41d7a4	-0.04732479

bias_dg_x f4 [33]
0	0xbb1865e0	-0.0023254082
1	0x3ef39e25	0.47581592
2	0xbbe57c9a	-0.007003379
3	0xbe170c02	-0.14750674
4	0xbaa9fbb1	-0.0012968687
5	0xbdba95e5	-0.09110621
6	0xbe580a7c	-0.2109775
7	0xb922fc85	-0.00015543595
8	0xbbc64bc7	-0.006051514
9	0xbe1f9f0b	-0.15588014
10	0x3fb7ad41	1.4349748
11	0x3f8be26b	1.0928472
12	0x3fdb85d5	1.7150217
13	0xbd29294d	-0.041299153
14	0xbe1c97d2	-0.1529229
15	0xbc645dd0	-0.013938382
16	0xbe303f34	-0.1721161
17	0xbe13817f	-0.14404868
18	0xbd3f2863	-0.046669375
19	0xbdf75df0	-0.12078464
20	0xbdc8c289	-0.0980273
21	0xbc9c2ed2	-0.019065294
22	0x401251da	2.2862458
23	0xbd9a86ea	-0.07545264
24	0xbcd1a408	-0.025590912
25	0xbd4e6867	-0.050392535
26	0xbcb85332	-0.022500608
27	0xbd1d7655	-0.03844293
28	0xbd50d80a	-0.05098728
29	0xbc846027	-0.01615913
30	0xbcdfd768	-0.027324393
31	0xbc61a36a	-0.013771871
32	0x3fddc91b	1.7326998

bias_dg_h f4 [33]
0	0xbb60c880	-0.0034299195
1	0xbd1472e1	-0.03624237
2	0xbc743e07	-0.014907367
3	0xbc5bdb3b	-0.013418968
4	0xbc195e9b	-0.009360935
5	0xbe698440	-0.22804356
6	0xbdb687f6	-0.08912651
7	0xbbbcbaaf	-0.005759559
8	0xbcc48ed8	-0.023993894
9	0xbd297ebc	-0.04138063
10	0xbcc0f788	-0.023555532
11	0xbbe4c72e	-0.006981752
12	0xbe070f8b	-0.13189523
13	0xbc19f58f	-0.009396925
14	0xbe27080b	-0.16311662
15	0xbc03b7cd	-0.008039427
16	0xbd8f3f33	-0.06994476
17	0xbbd596aa	-0.0065182047
18	0xbdfdacd0	-0.12386477
19	0xbded1443	-0.1157613
20	0x3eb91385	0.36147705
21	0xbaa4adc6	-0.0012563996
22	0x406fc66e	3.7464862
23	0x403ad665	2.9193356
24	0xbe4381ff	-0.19092558
25	0xbc2fc7d7	-0.010728798
26	0x3e533d64	0.20628887
27	0xbd94b240	-0.07260561
28	0xbdd9e762	-0.10639836
29	0xbdd979d5	-0.10618941
30	0xbdd00e7e	-0.10159014
31	0x3fe37697	1.7770566
32	0xbe8aafb5	-0.2708718

bias_z f4 [33]
0	0xc03226e6	-2.7836242
1	0xbf6fa85c	-0.9361627
2	0xbf00be72	-0.50290596
3	0x3d58356f	0.052785333
4	0x3f8ef104	1.1167302
5	0x3d2f2a3f	0.0427649
6	0x3f0c1da4	0.5473273
7	0xc025f15e	-2.592857
8	0xc01c5cfb	-2.443175
9	0xbd8365c1	-0.064158924
10	0xbf2d2a67	-0.67642826
11	0xbea47e13	-0.32127437
12	0xbfc79aca	-1.5594113
13	0xbffd59c6	-1.9793022
14	0xbe94be22	-0.2905131
15	0xbf632b8d	-0.8873833
16	0xbffbdd5a	-1.9676926
17	0xbdc2b3be	-0.09506939
18	0xc0209864	-2.5093012
19	0xc02ea774	-2.7289705
20	0x3ff88ca8	1.9417925
21	0xbec9d9d3	-0.39424
22	0xc0adbb05	-5.4290795
23	0xc06bd789	-3.6850302
24	0xc01f207f	-2.4863584
25	0xbe8fdc41	-0.28097728
26	0xc015746a	-2.3352304
27	0xbf507f25	-0.8144401
28	0xbf7da458	-0.99078894
29	0x3e0916cd	0.13387604
30	0xbfd23feb	-1.6425756
31	0xc02a2b84	-2.658906
32	0x3fc3e744	1.5304952

bias_r f4 [33]
0	0x40492342	3.142777
1	0x40453edd	3.0819619
2	0x3fed63f8	1.8546133
3	0x40026f18	2.0380306
4	0xc093412e	-4.6017065
5	0xc0aad058	-5.3379326
6	0x3fbd2432	1.4776671
7	0xc01ba80c	-2.4321318
8	0x402cd6f5	2.70062
9	0x4012ce7e	2.2938533
10	0x3ffb116b	1.961469
11	0x405ce41d	3.451423
12	0x403b926d	2.9308121
13	0x3f3168db	0.6930062
14	0xc09e124c	-4.9397335
15	0xc0ba66c9	-5.825047
16	0x3fce1d04	1.6102605
17	0x3ff932b3	1.9468597
18	0xbf530c2a	-0.82440436
19	0x406ac79d	3.6684334
20	0x400501ef	2.078243
21	0x3f815c35	1.0106264
22	0x3fe0762a	1.7536061
23	0x3fcd5747	1.604226
24	0xbef10820	-0.4707651
25	0x3fb80a09	1.4378062
26	0x3efa7304	0.48915875
27	0x4016eec6	2.3583236
28	0x403341d7	2.8008935
29	0x3f09fd0e	0.53901756
30	0xc032ec40	-2.7956696
31	0x3f003112	0.50074875
32	0x3fc6c8b1	1.5529996

bias_h f4 [33]
0	0x3cd40901	0.0258832
1	0xbcf52f29	-0.029929714
2	0xbd80861b	-0.062755786
3	0xbdce0954	-0.10060373
4	0xbe39f129	-0.18158402
5	0x3e4aad5a	0.19792691
6	0xbba6f4d1	-0.0050951024
7	0xbf2e47c5	-0.6807826
8	0x3e844488	0.25833535
9	0x3e8e46b1	0.27788308
10	0x3e39a898	0.1813072
11	0xbcaf16f5	-0.021373251
12	0xbd646f49	-0.055770192
13	0x3e3463a6	0.17616138
14	0x3f36c886	0.71399724
15	0xbcc143df	-0.023591934
16	0xbb0eb4bf	-0.0021775214
17	0xbde1c76a	-0.11024363
18	0xbd82642e	-0.06366764
19	0xbd566dda	-0.052350856
20	0xbe99cc52	-0.30038697
21	0xbd8b2b46	-0.06795363
22	0x3d0f8e87	0.035048034
23	0xbd1db821	-0.038505677
24	0xbd19c925	-0.037545342
25	0x3e918544	0.28421986
26	0x3e9fc1b8	0.31202483
27	0xbb2c8e08	-0.0026329774
28	0xbc402abc	-0.011728939
29	0x3e0d9a56	0.13828406
30	0x3f72aa36	0.9479097
31	0xbf5d32ed	-0.8640583
32	0x3d9eb80c	0.07749948
