src/GRU-D/save/grud_mean_grud_para.pt (torch, 8040 bytes, 17 tensors)

weight_dg_x f4 [33]
00000000: bcfd 3c40 852a 883f 25bc 4cba 2b7b 86bc
00000010: 7741 cf3c d8cc 1fbe 0f21 f4bc 69c6 c3bf
00000020: 8034 383d 067c 80be fda1 13be 8adc fd3f
00000030: 93f3 c1bd 64bf 8dbd 76db da3c 49a6 dcbc
00000040: a605 973c c564 4840 b742 133f e146 c33f
00000050: 5892 22bd 551b d6bc 0dc8 cdbc 042d 2fbe
00000060: 2653 c63f 1cdd 99be f29f fcbe 86d2 21be
00000070: 18e6 f53c 4452 b2bd e3d3 d2bc 132b e13c
00000080: d9a3 4c3d
2.9529867 1.0637976 -0.0007810018 -0.016416153 0.02529977 -0.15605485 -0.02980092 -1.5294925
0.044971943 -0.25094622 -0.14417262 1.9832928 -0.09470286 -0.069212705 0.026715975 -0.02693476
0.01843531 3.1311505 0.57523674 1.5256006 -0.039690346 -0.02613608 -0.025119806 -0.17107016
1.5494125 -0.30051506 -0.4934078 -0.15802965 0.030016944 -0.08707097 -0.025735801 0.02748636
0.049960945

weight_dg_h f4 [33]
00000000: d268 2e40 92c3 0d3e 8a03 7bbe 6a31 283c
00000010: 0901 353c 64ca a63b e467 83be a589 69be
00000020: bcd6 ccbe c029 edbd c7be cd3c 290c 953c
00000030: 4960 733d c71d d23e eb87 fbbc c096 dfb9
00000040: 13cc 64bc 17ff f3bd 51b1 a63d b694 853c
00000050: 0de5 70be 4d69 3a3c 556d 013c dad7 273d
00000060: efdd 6f40 4a9a 9fbf f00a d4bf 3d22 20be
00000070: f01f 6d3e 040f 9e3d c16f d4bd d0be 97bc
00000080: 341c 0fbd
2.7251477 0.13844135 -0.24513069 0.0102656875 0.01104761 0.005090045 -0.256652 -0.22806413
-0.4000758 -0.11580229 0.025115384 0.018194275 0.059417997 0.41038343 -0.03070446 -0.00042646192
-0.013964671 -0.11913889 0.08139289 0.016306262 -0.23524876 0.011377645 0.007899602 0.040977336
3.7479208 -1.246896 -1.6565838 -0.15638061 0.23156714 0.07717708 -0.10372878 -0.018523604
-0.034939006

weight_xz f4 [33]
00000000: 53bb 0440 ac0e 98bb f2e4 99bf d408 10c0
00000010: afb3 2abf 964d f83e adb2 9d3e c2f9 503f
00000020: bc9e 543f 20c9 13bd 12d6 de3e 4f9d 02c0
00000030: fc0f 1cbf c228 2540 c982 2e3f 4252 69bf
00000040: e7b5 14bf d00b f43f bc4c 753f c4e6 53be
00000050: cd35 343f 2f8f 69bf a5ea ebbd ec4c 9fbe
00000060: 08fa 5abe f242 15bf 9469 993f aa64 753f
00000070: ac59 7540 3633 d1bf 62d5 993d a22d 8d3d
00000080: 5325 aebd
2.0739334 -0.004640421 -1.2022994 -2.2505388 -0.66680425 0.48496693 0.3080038 0.816311
0.8305471 -0.03608048 0.43522698 -2.0408514 -0.6096189 2.5806127 0.6816831 -0.9114114
-0.5809006 1.9066105 0.9582021 -0.20693499 0.70394593 -0.91234106 -0.11519364 -0.31113374
-0.21384442 -0.58305275 1.1985345 0.95856726 3.8335981 -1.6343753 0.07511403 0.068934694
-0.08503213

weight_hz f4 [33]
00000000: 4331 b5bf e1c8 63bf ae8e 0c40 7362 843f
00000010: dc45 4fbf d4e7 4a40 8f16 15bf 4b10 39c0
00000020: 227a b63f 0e59 1dbf 2976 62bf b94a 09c0
00000030: c10b eb3f 116e 4ebf 6a67 d73e 80c0 c9be
00000040: 8183 c0bf 986c c33f 51f8 51bd bb44 093f
00000050: e0c7 043f 1a50 23bf 1ec5 5c3f 5737 75be
00000060: e26b 9fbe fe98 2abe 2eca 4540 ce15 b43b
00000070: e9c1 0540 96b8 d4bf 8513 b53e 872e 19c0
00000080: 6189 053f
-1.4155658 -0.8897839 2.1962085 1.0342544 -0.8096597 3.1703997 -0.58237547 -2.8916194
1.4256022 -0.6146401 -0.8846155 -2.1451857 1.8362962 -0.806367 0.42071086 -0.39404678
-1.5040132 1.5267515 -0.051262204 0.536205 0.51867485 -0.637941 0.86238277 -0.23946892
-0.31136996 -0.16659924 3.090465 0.0054957634 2.0899603 -1.6618831 0.35366455 -2.3934648
0.5216275

weight_mz f4 [33]
00000000: d9ac eb3f c15f bebe 7a91 3cbf be35 06c0
00000010: f232 923f 4feb 1640 ed90 383f e68a 4e3e
00000020: a335 f6be 379c ddbe 656b f4bc ed8f eebf
00000030: 90aa e5be 2a7c a740 f273 1940 018f 10c0
00000040: d46b 253e 2a22 14c0 fddd 2c40 9553 8dbe
00000050: daf1 c03f 1922 2bbf ea83 f53e 1419 c5bf
00000060: da91 d4be 0d90 1b3f 1705 0f3f e4f2 693e
00000070: a6f7 5f3e 905d db3f 2d09 82be fa3d 19be
00000080: e41b 12be
1.8412124 -0.3718243 -0.7365948 -2.0970302 1.1421797 2.358112 0.7209614 0.20170173
-0.48087797 -0.43283245 -0.029836366 -1.8637673 -0.4485669 5.2339067 2.3977017 -2.2587283
0.16154414 -2.3145852 2.701049 -0.2760283 1.5073807 -0.66848904 0.47952205 -1.5398278
-0.41517526 0.6076668 0.5586714 0.22846562 0.21871814 1.7137928 -0.25397626 -0.14965048
-0.14268452

weight_xr f4 [33]
00000000: 31bf 95be 0a61 7a3e 3480 79c0 64fd 9440
00000010: 4604 dabf 9f44 0a40 84a6 c8bf 232d 8c3f
00000020: 9309 11bf f461 bdbf 85d6 a3c0 f09c 24c0
00000030: 6e0a 84bf f4e0 17c0 0426 e8bf 9eb3 7abf
00000040: 2f65 9b40 d48f 0c40 1a8a 62c0 2506 6ec0
00000050: c852 c8be be8f ffbf a83c 23c0 7b6c bbbf
00000060: 61bf 91be e565 50bf 23ab bb3f ac1f 45c0
00000070: 21bd 64c0 e56e f93f 6d5b 5cc0 0692 fd3f
00000080: 0bd1 603c
-0.2924743 0.2445108 -3.89845 4.6559315 -1.7032554 2.1604383 -1.5675817 1.0951275
-0.56655234 -1.4795518 -5.1199365 -2.5720787 -1.0315683 -2.373105 -1.8136601 -0.97930324
4.8561015 2.1962786 -3.539679 -3.719125 -0.39125657 -1.9965742 -2.5505772 -1.4642481
-0.28466323 -0.8140548 1.4661602 -3.080058 -3.5740435 1.9486967 -3.4430802 1.9810188
0.013721715

weight_hr f4 [33]
00000000: 5a3c 6bbf 5de8 0440 b0b8 c43f 0c86 7640
00000010: 5e97 a6bf ecdf 4640 5e4f 36bf c18e 3ebf
00000020: 62dc 90bd 6950 a63f c0d0 0e3f c19e 30c0
00000030: b593 d03e 4898 a0bf 9a53 fdbf bc40 2540
00000040: 4d9f e4c0 fe67 02c0 162f c7be 9d0e 49bf
00000050: a47e 27bf a383 943b ea84 95bf dc85 fabf
00000060: 4871 d9bf 847a ed3d 02f7 493f 5104 003f
00000070: 2637 ba3f b2af 32c0 08b4 303f 8660 bb3f
00000080: 6e1a eabf
-0.91888964 2.0766823 1.5368862 3.8519316 -1.3014944 3.107417 -0.71214855 -0.74436575
-0.07073285 1.2993289 0.5578728 -2.7596896 0.40737692 -1.2546473 -1.9791138 2.582076
-7.144446 -2.0375972 -0.3890311 -0.78537923 -0.65427613 0.004532294 -1.1681187 -1.9572101
-1.6987696 0.115956336 0.7889253 0.50006586 1.454808 -2.7919736 0.69024706 1.4638832
-1.8289316

weight_mr f4 [33]
00000000: 80e3 6bc0 9bd8 e13f 9c99 203d dda5 153f
00000010: 762e 8a3f 5b32 1540 f25a febd 7f83 1b3e
00000020: 26b3 5240 62a2 65c0 e98e b2bf a514 6dbe
00000030: 9114 b93f 8504 0bc0 5aaa d0c0 21aa b1c0
00000040: 64bf b23e a742 9fbe 1a14 13c0 8a7b b7bf
00000050: 6c62 b8be bfa9 42bf fd15 2cc0 2e59 4a40
00000060: bf2f 4fbf 97c3 d13f 76bd 8b40 d95a f93f
00000070: b10a 11c0 b053 f3bd 1618 443e 3f1e 8840
00000080: 1c9f 8f40
-3.6857605 1.7644228 0.039208993 0.5845621 1.0795429 2.3311985 -0.1241969 0.1518688
3.2921844 -3.588036 -1.3949863 -0.23152407 1.4459401 -2.1721509 -6.520795 -5.5520177
0.34911644 -0.3110554 -2.298102 -1.4334576 -0.3601259 -0.7604026 -2.688842 3.161693
-0.8093223 1.6387814 4.3668776 1.948085 -2.2662776 -0.118811965 0.19149813 4.253692
4.4881725

weight_xh f4 [33]
00000000: 7ea6 af3f 2777 d93c a563 543f 8147 65be
00000010: 52f9 92bf 8145 603e a42c eabd 8502 f63f
00000020: ad0b 20bf 860b 903e dbd5 e3be 822f 90be
00000030: a52e c73e 0770 6dbe b943 553e 4a37 0cbe
00000040: 4d3c 323e 56ce c6bf 67aa 6a3f 436b 39bf
00000050: 156b 273f 569e bb3d f6e1 b03e a6bf 94bd
00000060: c80e 3a3e 60ea d73e ecef 27be a7f9 6a3f
00000070: 9ace a2bf a4bd 17c0 cfd3 c9be 660d 0e3d
00000080: edc6 413e
1.3722684 0.026546074 0.82964545 -0.22390558 -1.1482337 0.21901514 -0.11434296 1.9219519
-0.62517816 0.28133792 -0.44499096 -0.28161246 0.38902774 -0.23187266 0.20826615 -0.13692966
0.17405815 -1.5531719 0.91666263 -0.72429293 0.6539777 0.091610596 0.34547395 -0.072631165
0.18169701 0.42171 -0.16400117 0.9178719 -1.27193 -2.3709497 -0.3941941 0.034680746
0.1892354

weight_hh f4 [33]
00000000: 456f b6bf 59f0 6cc0 6b71 fac0 c8ea 06bf
00000010: 3a38 fbbf 2227 46c0 7bb7 e7bf 27d7 6f3e
00000020: 2884 8cc0 4ee6 17c0 ad43 90c0 9857 56c0
00000030: c811 edbf c91a 1ac0 7b43 44c0 ce9e 38c0
00000040: f34e f1bf ce08 d1bf 7b51 52c0 c11b 9ac0
00000050: 641e 01c0 f3c7 17c0 51bc 46c0 1407 a6c0
00000060: d131 4ebf e44e 0cc0 b936 82c0 7692 68c0
00000070: f818 60c0 2f07 90bf 0a32 2ec0 7ef0 9fc0
00000080: 91f4 82c0
-1.4252707 -3.7021697 -7.826345 -0.52702 -1.9626534 -3.0961385 -1.8102869 0.23421918
-4.3911324 -2.3734317 -4.508261 -3.3490963 -1.8521051 -2.4078848 -3.0666187 -2.8846927
-1.8852218 -1.6330812 -3.2862232 -4.815888 -2.01748 -2.371579 -3.105244 -5.188364
-0.80544764 -2.192315 -4.06918 -3.6339393 -3.501524 -1.1252192 -2.7218041 -4.998107
-4.0923543

weight_mh f4 [33]
00000000: 1243 013e 390e 04bf cf9a e03e 8e1f 0ec0
00000010: a492 f9be 7100 93bf 7d66 67bf 05bc cb3e
00000020: b4ac 02bc 5673 833f 7269 013f bceb d7bd
00000030: e46f b33d 94b1 27c0 ec83 f13f d29c 21c0
00000040: 7bb5 3d40 19ae 9fbf e684 dd3f 493b a7bf
00000050: ff40 de3f 687f f2bf 5a85 8b40 4236 ed3e
00000060: 0b5d fc3e 2c87 f13c 66a0 f6be 45e9 4e3f
00000070: 7b6b b8bf 79a3 863f 3aad 883f 45e9 5a3e
00000080: 50d3 05be
0.12623242 -0.515842 0.4386811 -2.220676 -0.4874469 -1.148451 -0.9039076 0.39791885
-0.007975746 1.0269573 0.5055152 -0.1054301 0.08761576 -2.6202135 1.8868384 -2.5251966
2.9642017 -1.2475005 1.7306182 -1.3064967 1.7363585 -1.8945131 4.3600283 0.46330458
0.49289736 0.0294834 -0.4816925 0.8082469 -1.44078 1.0518638 1.0677865 0.21378048
-0.1306889

weight_hy f4 [1, 33]
00000000: 7f21 d0bd aba4 ba3b 2550 31bc 4478 7fbe
00000010: 17ae 2abf 0a9c 04bf 705c 1bbd 8f15 af3d
00000020: 528e 1ebf e5c9 b4be 265e 363f f498 493e
00000030: f4ed b93d 5691 2c3f 7ead e2be 72dd 05be
00000040: eadf edba bb9d 1d3f c85d 64be 393a c9bd
00000050: 3fcc 6e3e aa0c ac3d 5472 a23c 4eea ee3b
00000060: 20aa 4d3b b8eb 373e c265 aabd 9ec8 873f
00000070: 89a1 f83e 9ca0 e2be 6f52 db3d adad d13e
00000080: b245 583d
-0.10162639 0.0056958995 -0.010822331 -0.24948221 -0.6667189 -0.51800597 -0.037929952 0.08549034
-0.61935914 -0.35310283 0.7123741 0.19687253 0.09078589 0.67409265 -0.4427299 -0.13072756
-0.0018148397 0.615688 -0.223014 -0.09825558 0.23320101 0.08400853 0.019829907 0.007291115
0.003138192 0.17961013 -0.0832019 1.0608099 0.48560742 -0.4426316 0.10709082 0.40952817
0.05280084

bias_dg_x f4 [33]
00000000: 3e88 543e da18 5f3f 9b84 2ebe ff27 45bd
00000010: 4923 07be f374 10bd a912 97bd 64b5 473d
00000020: 5537 0cbe 6239 2ebb 58fa 9abc 918e c93f
00000030: 46b7 83bc 2be4 79bd 8a84 a2bd d407 17be
00000040: c0e1 0fbe b8fa d0be 7150 e23f b997 0940
00000050: 0a80 ca3f 8e4b b7bd d33c 0fbe 1a26 0ebe
00000060: dee4 d13f be15 90bd d02f 5dbb 53c0 f5bb
00000070: 93f5 35be 09ca 2fbe 6f08 3bbd cbef ddbd
00000080: b218 2bbe
0.20755097 0.87147295 -0.17042772 -0.048133846 -0.13197054 -0.03526778 -0.07376606 0.048756972
-0.13692982 -0.0026584496 -0.018918201 1.5746633 -0.016078603 -0.061008614 -0.07935436 -0.1474908
-0.1405096 -0.40816283 1.7680799 2.1498854 1.5820324 -0.08949958 -0.13988046 -0.13881722
1.639797 -0.07035397 -0.0033750422 -0.0074997335 -0.1776946 -0.17166914 -0.04566234 -0.108367525
-0.1670864

bias_dg_h f4 [33]
00000000: 1eb9 b9be 8b99 2fbf 3493 bdb8 bae8 c1bc
00000010: 02bf 15be f75a 21be cea3 e8bb 6b53 79bc
00000020: a9de 80ba 017b 3ebd c3ff 78be 11ce c8bd
00000030: 2213 23be dab9 2740 9cfa 9ebd 0141 8cbd
00000040: 200e 70bd cae2 dcbd 61fa 26be 4a8c 87bd
00000050: b22d cfbc 7327 11be 3f60 dabd b86f 11be
00000060: f839 ae3d 764b 4ebc c840 cebc 5fa1 c2b8
00000070: 383e 4bbf 085a 46be 2d4c ccbd 8bcc 23bd
00000080: 8284 e6bc
-0.36274046 -0.6859366 -9.039641e-05 -0.023670543 -0.14623645 -0.15757357 -0.007099605 -0.015217642
-0.0009831983 -0.046504024 -0.24316315 -0.09804929 -0.15925267 2.6207185 -0.07762644 -0.06848336
-0.05860722 -0.10785444 -0.1630645 -0.06618555 -0.025290344 -0.14175205 -0.10662889 -0.14202774
0.085071504 -0.0125912335 -0.025177374 -9.2806986e-05 -0.79391813 -0.19370282 -0.09975467 -0.03998999
-0.028139357

bias_z f4 [33]
00000000: f3b7 93bf a60b d5c0 0e01 4dc0 2e15 8fbf
00000010: ec37 953f 526c 243e f0bb 7f3f f3cd 3ac0
00000020: b6dd 8cbf 1baa f53e d102 44bf bb0e 373e
00000030: 5ce2 173f c5ab 2fc0 f961 563e b74e 3a3f
00000040: 5435 52bf cead 0fc0 fe6c 6fbe 68c4 20bf
00000050: e43f fc3f b55e 40bf f5dc 52c0 9a93 9dc0
00000060: efb8 c1c0 c632 8f3f 5d56 c5bf 4532 aebe
00000070: b212 05c0 818f f33c 0630 933e e904 84be
00000080: 668e dcbe
-1.1540512 -6.657672 -3.2031894 -1.1178339 1.1657691 0.16056946 0.99896145 -2.9188201
-1.1005161 0.47981343 -0.765668 0.17876713 0.5932977 -2.744859 0.20935811 0.7277636
-0.8211262 -2.2449832 -0.23381421 -0.6279969 1.9706998 -0.7514451 -3.2947361 -4.924268
-6.053825 1.118737 -1.5416981 -0.34022728 -2.079266 0.029731514 0.28747576 -0.25784996
-0.4307739

bias_r f4 [33]
00000000: c865 273e 879c 8a40 fb6f da40 3dc4 94c0
00000010: e84f c83f 6cce 723f 0379 be3f e615 fbbf
00000020: 16e9 9240 412b 5e3f 40ff 893f 802a 2240
00000030: beba e63f eea8 2e40 a9b6 acbe 44df 313f
00000040: 2832 b5c0 6342 fc3f 3e14 4640 92f8 7440
00000050: e804 3f3f 8a40 0340 40c8 903f 2328 9140
00000060: dc69 a0bf 9101 1340 2bee 683f 25e2 5a40
00000070: c041 fe3f 7d8f b4bf bf6c 1140 b9e7 16bf
00000080: dd2e 5040
0.1634742 4.3316073 6.8261695 -4.648955 1.5649385 0.94846225 1.488068 -1.9616058
4.590953 0.8678475 1.0781021 2.533844 1.8025739 2.7290606 -0.3373311 0.694813
-5.6623726 1.970776 3.0949855 3.8276715 0.7461686 2.0508142 1.1311111 4.5361495
-1.2532306 2.2969706 0.90988415 3.4200528 1.9863815 -1.4106289 2.2722623 -0.5894733
3.2528603

bias_h f4 [33]
00000000: 38fb 85be 7e47 5cbc 12fc 2a3d a759 883e
00000010: ac14 1bbe 4405 ce3d d629 b33c f8e9 0cbf
00000020: 596f 9cbd 354f 603e 0dbf 99bd 9bc7 9dbd
00000030: 80e7 b73d a023 d1be edec 2d3e 806a 613e
00000040: 7a26 0c3c 4fa7 893e 6fd2 253e 6661 8c3c
00000050: 6a94 80be fd2b a3bd 3c23 663c baa9 6cbd
00000060: 8dca a7bb 29a7 2e3e 4cd4 953e 3fb0 283d
00000070: 56b7 e23c 1627 cf3e 7959 0a3e f171 11bf
00000080: d101 38bd
-0.26168227 -0.013444779 0.0417443 0.266309 -0.15144604 0.10059598 0.021870535 -0.5504451
-0.076384254 0.21905215 -0.07507143 -0.07704087 0.08979702 -0.40847492 0.16984911 0.22013283
0.008554095 0.2688546 0.16193555 0.017136287 -0.2511323 -0.079673745 0.0140464865 -0.05777905
-0.0051205815 0.17055954 0.29263532 0.041183706 0.027675312 0.40459508 0.13510694 -0.56814486
-0.044923607
